module {
  func.func @main(%arg0: tensor<1x224x224x3xui8> {iree.identifier = "input"}) -> (tensor<1x1001xui8> {iree.identifier = "MobilenetV1/Predictions/Reshape_1"}) {
    %0 = "tosa.const"() {value = dense<"…"> : tensor<3x3x256x1xi8>} : () -> tensor<3x3x256x1xi8>
    %1 = "tosa.const"() {value = dense<"…"> : tensor<3x3x128x1xi8>} : () -> tensor<3x3x128x1xi8>
    %2 = "tosa.const"() {value = dense<"…"> : tensor<3x3x128x1xi8>} : () -> tensor<3x3x128x1xi8>
    %3 = "tosa.const"() {value = dense<"…"> : tensor<3x3x128x1xi8>} : () -> tensor<3x3x128x1xi8>
    %4 = "tosa.const"() {value = dense<"…"> : tensor<3x3x128x1xi8>} : () -> tensor<3x3x128x1xi8>
    %5 = "tosa.const"() {value = dense<"…"> : tensor<3x3x128x1xi8>} : () -> tensor<3x3x128x1xi8>
    %6 = "tosa.const"() {value = dense<"…"> : tensor<3x3x128x1xi8>} : () -> tensor<3x3x128x1xi8>
    %7 = "tosa.const"() {value = dense<"…"> : tensor<3x3x64x1xi8>} : () -> tensor<3x3x64x1xi8>
    %8 = "tosa.const"() {value = dense<"…"> : tensor<3x3x64x1xi8>} : () -> tensor<3x3x64x1xi8>
    %9 = "tosa.const"() {value = dense<"…"> : tensor<3x3x32x1xi8>} : () -> tensor<3x3x32x1xi8>
    %10 = "tosa.const"() {value = dense<"…"> : tensor<3x3x32x1xi8>} : () -> tensor<3x3x32x1xi8>
    %11 = "tosa.const"() {value = dense<"…"> : tensor<3x3x16x1xi8>} : () -> tensor<3x3x16x1xi8>
    %12 = "tosa.const"() {value = dense<[[[[113], [106], [-127], [113], [113], [112], [113], [114]], [[113], [74], [-76], [114], [112], [121], [107], [107]], [[113], [116], [-15], [111], [112], [110], [115], [113]]], [[[113], [85], [-82], [111], [112], [112], [112], [112]], [[99], [84], [-75], [116], [117], [124], [107], [108]], [[127], [124], [-44], [120], [114], [111], [115], [113]]], [[[113], [95], [-103], [113], [111], [119], [111], [113]], [[116], [69], [-31], [114], [116], [103], [118], [114]], [[110], [86], [42], [112], [113], [117], [110], [113]]]]> : tensor<3x3x8x1xi8>} : () -> tensor<3x3x8x1xi8>
    %13 = "tosa.const"() {value = dense<-3.500000e+01> : tensor<1x1xf32>} : () -> tensor<1x1xf32>
    %14 = "tosa.const"() {value = dense<0.143288672> : tensor<1x1xf32>} : () -> tensor<1x1xf32>
    %15 = "tosa.const"() {value = dense<2.560000e+02> : tensor<1x1xf32>} : () -> tensor<1x1xf32>
    %16 = "tosa.const"() {value = dense<-1.280000e+02> : tensor<1x1xf32>} : () -> tensor<1x1xf32>
    %17 = "tosa.const"() {value = dense<"…"> : tensor<1001xi32>} : () -> tensor<1001xi32>
    %18 = "tosa.const"() {value = dense<"…"> : tensor<1001x1x1x256xi8>} : () -> tensor<1001x1x1x256xi8>
    %19 = "tosa.const"() {value = dense<"…"> : tensor<256xi32>} : () -> tensor<256xi32>
    %20 = "tosa.const"() {value = dense<"…"> : tensor<256x1x1x256xi8>} : () -> tensor<256x1x1x256xi8>
    %21 = "tosa.const"() {value = dense<"…"> : tensor<256xi32>} : () -> tensor<256xi32>
    %22 = "tosa.const"() {value = dense<"…"> : tensor<256xi32>} : () -> tensor<256xi32>
    %23 = "tosa.const"() {value = dense<"…"> : tensor<256x1x1x128xi8>} : () -> tensor<256x1x1x128xi8>
    %24 = "tosa.const"() {value = dense<"…"> : tensor<128xi32>} : () -> tensor<128xi32>
    %25 = "tosa.const"() {value = dense<"…"> : tensor<128xi32>} : () -> tensor<128xi32>
    %26 = "tosa.const"() {value = dense<"…"> : tensor<128x1x1x128xi8>} : () -> tensor<128x1x1x128xi8>
    %27 = "tosa.const"() {value = dense<"…"> : tensor<128xi32>} : () -> tensor<128xi32>
    %28 = "tosa.const"() {value = dense<"…"> : tensor<128xi32>} : () -> tensor<128xi32>
    %29 = "tosa.const"() {value = dense<"…"> : tensor<128x1x1x128xi8>} : () -> tensor<128x1x1x128xi8>
    %30 = "tosa.const"() {value = dense<"…"> : tensor<128xi32>} : () -> tensor<128xi32>
    %31 = "tosa.const"() {value = dense<"…"> : tensor<128xi32>} : () -> tensor<128xi32>
    %32 = "tosa.const"() {value = dense<"…"> : tensor<128x1x1x128xi8>} : () -> tensor<128x1x1x128xi8>
    %33 = "tosa.const"() {value = dense<"…"> : tensor<128xi32>} : () -> tensor<128xi32>
    %34 = "tosa.const"() {value = dense<"…"> : tensor<128xi32>} : () -> tensor<128xi32>
    %35 = "tosa.const"() {value = dense<"…"> : tensor<128x1x1x128xi8>} : () -> tensor<128x1x1x128xi8>
    %36 = "tosa.const"() {value = dense<"…"> : tensor<128xi32>} : () -> tensor<128xi32>
    %37 = "tosa.const"() {value = dense<"…"> : tensor<128xi32>} : () -> tensor<128xi32>
    %38 = "tosa.const"() {value = dense<"…"> : tensor<128x1x1x128xi8>} : () -> tensor<128x1x1x128xi8>
    %39 = "tosa.const"() {value = dense<"…"> : tensor<128xi32>} : () -> tensor<128xi32>
    %40 = "tosa.const"() {value = dense<"…"> : tensor<128xi32>} : () -> tensor<128xi32>
    %41 = "tosa.const"() {value = dense<"…"> : tensor<128x1x1x64xi8>} : () -> tensor<128x1x1x64xi8>
    %42 = "tosa.const"() {value = dense<[8519, 17780, 18481, 949, 2145, 10720, 22115, 13628, -237, 953, 13, 18, 11, 6917, 35013, 2611, 934, -853, 2491, 29283, -1513, 1541, -514, -663, 6, -861, 1088, 278, 2227, -1814, 6455, 18242, 2803, -58, -619, -16, 6335, 18479, 2623, 14318, 484, -432, 2307, 763, 16744, 1270, -293, 31637, 15783, 987, 16475, 59, 28215, 34505, 1060, 2135, 691, -1419, 6197, -2952, 2549, -281, 3881, 146]> : tensor<64xi32>} : () -> tensor<64xi32>
    %43 = "tosa.const"() {value = dense<[1305, -9973, 11948, -4767, 13651, 18893, -3075, 4650, -5591, -9417, 13819, -26937, 4905, -15085, 6358, 8581, 5211, -4418, 4046, 7490, 10813, -16127, -7662, 4453, -16007, -11392, -3848, 7540, -15584, 6082, 1404, -28967, 3136, -4492, 3657, -16321, -1040, -897, -14484, -3120, 28509, -457, -19717, 6747, 7287, 6263, 7815, 8635, 4050, -10896, 7918, -6041, -3383, 387, 8487, -10248, 1815, 2042, -3555, 7855, 6907, 4316, -17893, -7725]> : tensor<64xi32>} : () -> tensor<64xi32>
    %44 = "tosa.const"() {value = dense<"…"> : tensor<64x1x1x64xi8>} : () -> tensor<64x1x1x64xi8>
    %45 = "tosa.const"() {value = dense<[2115, 265, 34, -1464, -1035, 2634, 993, 4003, 324, 1287, 462, 27, 0, 234, 1833, 1701, 193, 1057, 361, -23, -364, -348, 6548, -646, 1611, 1117, 4, -56, 2541, -573, -1296, 2157, 1678, 142, 2786, 3548, 187, 30, 1036, -24, 3476, 900, 1464, 6, 3896, -1803, -615, 133, 2306, 3790, -91, 3087, 4217, 7262, 84, 4910, 100, 566, 1710, 1531, -1192, -1664, 96, 2693]> : tensor<64xi32>} : () -> tensor<64xi32>
    %46 = "tosa.const"() {value = dense<[-21274, 13467, 6929, -3790, -1128, -18531, 13188, 1977, 15897, 5155, -552, 7991, -11846, 27849, 4357, 16794, 13566, -15815, 3139, -10473, 22484, 13585, 11063, 4814, 6200, 1016, 1992, 3683, -22147, 11755, 5621, 5468, 6237, 31569, 7571, 2036, 8290, 81, 16832, -5600, 14163, 9068, 8914, 15586, 27185, 6341, 5755, 13886, 15769, 22102, -2217, -7707, 1877, 6574, 18432, 12495, 11561, 13284, -10739, 12497, -5481, 3360, 19361, 3098]> : tensor<64xi32>} : () -> tensor<64xi32>
    %47 = "tosa.const"() {value = dense<"…"> : tensor<64x1x1x32xi8>} : () -> tensor<64x1x1x32xi8>
    %48 = "tosa.const"() {value = dense<[27148, 5721, 864, 9014, 21219, 13, 9295, 18688, 172, -4672, 509, 19670, 21062, 2931, 13956, 18882, 18634, 181, 1352, -2941, 507, 524, -342, 151, 4311, 19084, 952, 16062, -2244, 15365, 20439, 17864]> : tensor<32xi32>} : () -> tensor<32xi32>
    %49 = "tosa.const"() {value = dense<[7160, 11966, 2092, -10452, 1330, 248, -351, -8275, -6215, 2035, -3866, 1426, 7464, 692, 8106, 6715, 11948, -1096, 3848, 1628, 3794, -4340, 6751, 5257, 1901, 4252, -7548, -1592, 8063, 21758, 15522, 7156]> : tensor<32xi32>} : () -> tensor<32xi32>
    %50 = "tosa.const"() {value = dense<"…"> : tensor<32x1x1x32xi8>} : () -> tensor<32x1x1x32xi8>
    %51 = "tosa.const"() {value = dense<[4702, 2138, 4303, 3892, 13418, -63, 14, 291, -257, 3749, 1731, -114, 2688, 3851, 5513, 2307, -41, -22378, 6337, 9820, -26, 6929, 0, 519, 414, 716, -2670, 14352, 1780, 35, -1818, 0]> : tensor<32xi32>} : () -> tensor<32xi32>
    %52 = "tosa.const"() {value = dense<[4688, 7522, 1366, 13041, 10411, 5253, 7120, 5822, 15381, -18535, 3812, 7310, 4702, 627, -930, -985, 877, 9179, -13555, 2083, 674, 7546, -194, 9282, -5722, 1124, 1697, 2894, -8316, 2737, 1919, -6908]> : tensor<32xi32>} : () -> tensor<32xi32>
    %53 = "tosa.const"() {value = dense<"…"> : tensor<32x1x1x16xi8>} : () -> tensor<32x1x1x16xi8>
    %54 = "tosa.const"() {value = dense<[110, 6, -12, 669, 1354, 1386, 697, 740, 316, -3, -162, 491, 692, 868, -13, 702]> : tensor<16xi32>} : () -> tensor<16xi32>
    %55 = "tosa.const"() {value = dense<[-918, -4433, 87, -234, -21393, 7738, 529, -8835, -16817, -375, -199, 572, 5082, 15569, -186, 4955]> : tensor<16xi32>} : () -> tensor<16xi32>
    %56 = "tosa.const"() {value = dense<"…"> : tensor<16x1x1x8xi8>} : () -> tensor<16x1x1x8xi8>
    %57 = "tosa.const"() {value = dense<[857, -358, -94, 101, -16, -605, 2101, 2144]> : tensor<8xi32>} : () -> tensor<8xi32>
    %58 = "tosa.const"() {value = dense<[25283, -3188, -9419, 25319, -26006, 16843, 9410, 20808]> : tensor<8xi32>} : () -> tensor<8xi32>
    %59 = "tosa.const"() {value = dense<"…"> : tensor<8x3x3x3xi8>} : () -> tensor<8x3x3x3xi8>
    %60 = "tosa.rescale"(%arg0) {double_round = false, input_zp = 128 : i32, multiplier = array<i32: 1073741824>, output_zp = 0 : i32, per_channel = false, scale32 = true, shift = array<i32: 30>} : (tensor<1x224x224x3xui8>) -> tensor<1x224x224x3xi8>
    %61 = "tosa.conv2d"(%60, %59, %58) {dilation = array<i64: 1, 1>, pad = array<i64: 0, 1, 0, 1>, quantization_info = #tosa.conv_quant<input_zp = 0, weight_zp = 25>, stride = array<i64: 2, 2>} : (tensor<1x224x224x3xi8>, tensor<8x3x3x3xi8>, tensor<8xi32>) -> tensor<1x112x112x8xi32>
    %62 = "tosa.rescale"(%61) {double_round = true, input_zp = 0 : i32, multiplier = array<i32: 1361252654>, output_zp = -128 : i32, per_channel = false, scale32 = true, shift = array<i32: 38>} : (tensor<1x112x112x8xi32>) -> tensor<1x112x112x8xi8>
    %63 = "tosa.depthwise_conv2d"(%62, %12, %57) {dilation = array<i64: 1, 1>, pad = array<i64: 1, 1, 1, 1>, quantization_info = #tosa.conv_quant<input_zp = -128, weight_zp = 113>, stride = array<i64: 1, 1>} : (tensor<1x112x112x8xi8>, tensor<3x3x8x1xi8>, tensor<8xi32>) -> tensor<1x112x112x8xi32>
    %64 = "tosa.rescale"(%63) {double_round = true, input_zp = 0 : i32, multiplier = array<i32: 2127451264>, output_zp = -128 : i32, per_channel = false, scale32 = true, shift = array<i32: 34>} : (tensor<1x112x112x8xi32>) -> tensor<1x112x112x8xi8>
    %65 = "tosa.conv2d"(%64, %56, %55) {dilation = array<i64: 1, 1>, pad = array<i64: 0, 0, 0, 0>, quantization_info = #tosa.conv_quant<input_zp = -128, weight_zp = -30>, stride = array<i64: 1, 1>} : (tensor<1x112x112x8xi8>, tensor<16x1x1x8xi8>, tensor<16xi32>) -> tensor<1x112x112x16xi32>
    %66 = "tosa.rescale"(%65) {double_round = true, input_zp = 0 : i32, multiplier = array<i32: 1364139008>, output_zp = -128 : i32, per_channel = false, scale32 = true, shift = array<i32: 35>} : (tensor<1x112x112x16xi32>) -> tensor<1x112x112x16xi8>
    %67 = "tosa.depthwise_conv2d"(%66, %11, %54) {dilation = array<i64: 1, 1>, pad = array<i64: 0, 1, 0, 1>, quantization_info = #tosa.conv_quant<input_zp = -128, weight_zp = 95>, stride = array<i64: 2, 2>} : (tensor<1x112x112x16xi8>, tensor<3x3x16x1xi8>, tensor<16xi32>) -> tensor<1x56x56x16xi32>
    %68 = "tosa.rescale"(%67) {double_round = true, input_zp = 0 : i32, multiplier = array<i32: 1292868736>, output_zp = -128 : i32, per_channel = false, scale32 = true, shift = array<i32: 33>} : (tensor<1x56x56x16xi32>) -> tensor<1x56x56x16xi8>
    %69 = "tosa.conv2d"(%68, %53, %52) {dilation = array<i64: 1, 1>, pad = array<i64: 0, 0, 0, 0>, quantization_info = #tosa.conv_quant<input_zp = -128, weight_zp = 8>, stride = array<i64: 1, 1>} : (tensor<1x56x56x16xi8>, tensor<32x1x1x16xi8>, tensor<32xi32>) -> tensor<1x56x56x32xi32>
    %70 = "tosa.rescale"(%69) {double_round = true, input_zp = 0 : i32, multiplier = array<i32: 1418096896>, output_zp = -128 : i32, per_channel = false, scale32 = true, shift = array<i32: 36>} : (tensor<1x56x56x32xi32>) -> tensor<1x56x56x32xi8>
    %71 = "tosa.depthwise_conv2d"(%70, %10, %51) {dilation = array<i64: 1, 1>, pad = array<i64: 1, 1, 1, 1>, quantization_info = #tosa.conv_quant<input_zp = -128, weight_zp = -15>, stride = array<i64: 1, 1>} : (tensor<1x56x56x32xi8>, tensor<3x3x32x1xi8>, tensor<32xi32>) -> tensor<1x56x56x32xi32>
    %72 = "tosa.rescale"(%71) {double_round = true, input_zp = 0 : i32, multiplier = array<i32: 1543626240>, output_zp = -128 : i32, per_channel = false, scale32 = true, shift = array<i32: 36>} : (tensor<1x56x56x32xi32>) -> tensor<1x56x56x32xi8>
    %73 = "tosa.conv2d"(%72, %50, %49) {dilation = array<i64: 1, 1>, pad = array<i64: 0, 0, 0, 0>, quantization_info = #tosa.conv_quant<input_zp = -128, weight_zp = -23>, stride = array<i64: 1, 1>} : (tensor<1x56x56x32xi8>, tensor<32x1x1x32xi8>, tensor<32xi32>) -> tensor<1x56x56x32xi32>
    %74 = "tosa.rescale"(%73) {double_round = true, input_zp = 0 : i32, multiplier = array<i32: 1097009920>, output_zp = -128 : i32, per_channel = false, scale32 = true, shift = array<i32: 36>} : (tensor<1x56x56x32xi32>) -> tensor<1x56x56x32xi8>
    %75 = "tosa.depthwise_conv2d"(%74, %9, %48) {dilation = array<i64: 1, 1>, pad = array<i64: 0, 1, 0, 1>, quantization_info = #tosa.conv_quant<input_zp = -128, weight_zp = 8>, stride = array<i64: 2, 2>} : (tensor<1x56x56x32xi8>, tensor<3x3x32x1xi8>, tensor<32xi32>) -> tensor<1x28x28x32xi32>
    %76 = "tosa.rescale"(%75) {double_round = true, input_zp = 0 : i32, multiplier = array<i32: 1808861056>, output_zp = -128 : i32, per_channel = false, scale32 = true, shift = array<i32: 37>} : (tensor<1x28x28x32xi32>) -> tensor<1x28x28x32xi8>
    %77 = "tosa.conv2d"(%76, %47, %46) {dilation = array<i64: 1, 1>, pad = array<i64: 0, 0, 0, 0>, quantization_info = #tosa.conv_quant<input_zp = -128, weight_zp = 4>, stride = array<i64: 1, 1>} : (tensor<1x28x28x32xi8>, tensor<64x1x1x32xi8>, tensor<64xi32>) -> tensor<1x28x28x64xi32>
    %78 = "tosa.rescale"(%77) {double_round = true, input_zp = 0 : i32, multiplier = array<i32: 1841170304>, output_zp = -128 : i32, per_channel = false, scale32 = true, shift = array<i32: 37>} : (tensor<1x28x28x64xi32>) -> tensor<1x28x28x64xi8>
    %79 = "tosa.depthwise_conv2d"(%78, %8, %45) {dilation = array<i64: 1, 1>, pad = array<i64: 1, 1, 1, 1>, quantization_info = #tosa.conv_quant<input_zp = -128, weight_zp = -9>, stride = array<i64: 1, 1>} : (tensor<1x28x28x64xi8>, tensor<3x3x64x1xi8>, tensor<64xi32>) -> tensor<1x28x28x64xi32>
    %80 = "tosa.rescale"(%79) {double_round = true, input_zp = 0 : i32, multiplier = array<i32: 2050353408>, output_zp = -128 : i32, per_channel = false, scale32 = true, shift = array<i32: 35>} : (tensor<1x28x28x64xi32>) -> tensor<1x28x28x64xi8>
    %81 = "tosa.conv2d"(%80, %44, %43) {dilation = array<i64: 1, 1>, pad = array<i64: 0, 0, 0, 0>, quantization_info = #tosa.conv_quant<input_zp = -128, weight_zp = 9>, stride = array<i64: 1, 1>} : (tensor<1x28x28x64xi8>, tensor<64x1x1x64xi8>, tensor<64xi32>) -> tensor<1x28x28x64xi32>
    %82 = "tosa.rescale"(%81) {double_round = true, input_zp = 0 : i32, multiplier = array<i32: 1946023296>, output_zp = -128 : i32, per_channel = false, scale32 = true, shift = array<i32: 37>} : (tensor<1x28x28x64xi32>) -> tensor<1x28x28x64xi8>
    %83 = "tosa.depthwise_conv2d"(%82, %7, %42) {dilation = array<i64: 1, 1>, pad = array<i64: 0, 1, 0, 1>, quantization_info = #tosa.conv_quant<input_zp = -128, weight_zp = 24>, stride = array<i64: 2, 2>} : (tensor<1x28x28x64xi8>, tensor<3x3x64x1xi8>, tensor<64xi32>) -> tensor<1x14x14x64xi32>
    %84 = "tosa.rescale"(%83) {double_round = true, input_zp = 0 : i32, multiplier = array<i32: 1327838720>, output_zp = -128 : i32, per_channel = false, scale32 = true, shift = array<i32: 37>} : (tensor<1x14x14x64xi32>) -> tensor<1x14x14x64xi8>
    %85 = "tosa.conv2d"(%84, %41, %40) {dilation = array<i64: 1, 1>, pad = array<i64: 0, 0, 0, 0>, quantization_info = #tosa.conv_quant<input_zp = -128, weight_zp = -2>, stride = array<i64: 1, 1>} : (tensor<1x14x14x64xi8>, tensor<128x1x1x64xi8>, tensor<128xi32>) -> tensor<1x14x14x128xi32>
    %86 = "tosa.rescale"(%85) {double_round = true, input_zp = 0 : i32, multiplier = array<i32: 1444525312>, output_zp = -128 : i32, per_channel = false, scale32 = true, shift = array<i32: 37>} : (tensor<1x14x14x128xi32>) -> tensor<1x14x14x128xi8>
    %87 = "tosa.depthwise_conv2d"(%86, %6, %39) {dilation = array<i64: 1, 1>, pad = array<i64: 1, 1, 1, 1>, quantization_info = #tosa.conv_quant<input_zp = -128, weight_zp = -20>, stride = array<i64: 1, 1>} : (tensor<1x14x14x128xi8>, tensor<3x3x128x1xi8>, tensor<128xi32>) -> tensor<1x14x14x128xi32>
    %88 = "tosa.rescale"(%87) {double_round = true, input_zp = 0 : i32, multiplier = array<i32: 1503261440>, output_zp = -128 : i32, per_channel = false, scale32 = true, shift = array<i32: 35>} : (tensor<1x14x14x128xi32>) -> tensor<1x14x14x128xi8>
    %89 = "tosa.conv2d"(%88, %38, %37) {dilation = array<i64: 1, 1>, pad = array<i64: 0, 0, 0, 0>, quantization_info = #tosa.conv_quant<input_zp = -128, weight_zp = 3>, stride = array<i64: 1, 1>} : (tensor<1x14x14x128xi8>, tensor<128x1x1x128xi8>, tensor<128xi32>) -> tensor<1x14x14x128xi32>
    %90 = "tosa.rescale"(%89) {double_round = true, input_zp = 0 : i32, multiplier = array<i32: 1214427008>, output_zp = -128 : i32, per_channel = false, scale32 = true, shift = array<i32: 37>} : (tensor<1x14x14x128xi32>) -> tensor<1x14x14x128xi8>
    %91 = "tosa.depthwise_conv2d"(%90, %5, %36) {dilation = array<i64: 1, 1>, pad = array<i64: 1, 1, 1, 1>, quantization_info = #tosa.conv_quant<input_zp = -128, weight_zp = 35>, stride = array<i64: 1, 1>} : (tensor<1x14x14x128xi8>, tensor<3x3x128x1xi8>, tensor<128xi32>) -> tensor<1x14x14x128xi32>
    %92 = "tosa.rescale"(%91) {double_round = true, input_zp = 0 : i32, multiplier = array<i32: 1973616640>, output_zp = -128 : i32, per_channel = false, scale32 = true, shift = array<i32: 36>} : (tensor<1x14x14x128xi32>) -> tensor<1x14x14x128xi8>
    %93 = "tosa.conv2d"(%92, %35, %34) {dilation = array<i64: 1, 1>, pad = array<i64: 0, 0, 0, 0>, quantization_info = #tosa.conv_quant<input_zp = -128, weight_zp = 19>, stride = array<i64: 1, 1>} : (tensor<1x14x14x128xi8>, tensor<128x1x1x128xi8>, tensor<128xi32>) -> tensor<1x14x14x128xi32>
    %94 = "tosa.rescale"(%93) {double_round = true, input_zp = 0 : i32, multiplier = array<i32: 1315593344>, output_zp = -128 : i32, per_channel = false, scale32 = true, shift = array<i32: 37>} : (tensor<1x14x14x128xi32>) -> tensor<1x14x14x128xi8>
    %95 = "tosa.depthwise_conv2d"(%94, %4, %33) {dilation = array<i64: 1, 1>, pad = array<i64: 1, 1, 1, 1>, quantization_info = #tosa.conv_quant<input_zp = -128, weight_zp = 3>, stride = array<i64: 1, 1>} : (tensor<1x14x14x128xi8>, tensor<3x3x128x1xi8>, tensor<128xi32>) -> tensor<1x14x14x128xi32>
    %96 = "tosa.rescale"(%95) {double_round = true, input_zp = 0 : i32, multiplier = array<i32: 1576672128>, output_zp = -128 : i32, per_channel = false, scale32 = true, shift = array<i32: 36>} : (tensor<1x14x14x128xi32>) -> tensor<1x14x14x128xi8>
    %97 = "tosa.conv2d"(%96, %32, %31) {dilation = array<i64: 1, 1>, pad = array<i64: 0, 0, 0, 0>, quantization_info = #tosa.conv_quant<input_zp = -128, weight_zp = -4>, stride = array<i64: 1, 1>} : (tensor<1x14x14x128xi8>, tensor<128x1x1x128xi8>, tensor<128xi32>) -> tensor<1x14x14x128xi32>
    %98 = "tosa.rescale"(%97) {double_round = true, input_zp = 0 : i32, multiplier = array<i32: 1210926720>, output_zp = -128 : i32, per_channel = false, scale32 = true, shift = array<i32: 37>} : (tensor<1x14x14x128xi32>) -> tensor<1x14x14x128xi8>
    %99 = "tosa.depthwise_conv2d"(%98, %3, %30) {dilation = array<i64: 1, 1>, pad = array<i64: 1, 1, 1, 1>, quantization_info = #tosa.conv_quant<input_zp = -128, weight_zp = 38>, stride = array<i64: 1, 1>} : (tensor<1x14x14x128xi8>, tensor<3x3x128x1xi8>, tensor<128xi32>) -> tensor<1x14x14x128xi32>
    %100 = "tosa.rescale"(%99) {double_round = true, input_zp = 0 : i32, multiplier = array<i32: 1370435584>, output_zp = -128 : i32, per_channel = false, scale32 = true, shift = array<i32: 36>} : (tensor<1x14x14x128xi32>) -> tensor<1x14x14x128xi8>
    %101 = "tosa.conv2d"(%100, %29, %28) {dilation = array<i64: 1, 1>, pad = array<i64: 0, 0, 0, 0>, quantization_info = #tosa.conv_quant<input_zp = -128, weight_zp = 32>, stride = array<i64: 1, 1>} : (tensor<1x14x14x128xi8>, tensor<128x1x1x128xi8>, tensor<128xi32>) -> tensor<1x14x14x128xi32>
    %102 = "tosa.rescale"(%101) {double_round = true, input_zp = 0 : i32, multiplier = array<i32: 1236623744>, output_zp = -128 : i32, per_channel = false, scale32 = true, shift = array<i32: 37>} : (tensor<1x14x14x128xi32>) -> tensor<1x14x14x128xi8>
    %103 = "tosa.depthwise_conv2d"(%102, %2, %27) {dilation = array<i64: 1, 1>, pad = array<i64: 1, 1, 1, 1>, quantization_info = #tosa.conv_quant<input_zp = -128, weight_zp = -26>, stride = array<i64: 1, 1>} : (tensor<1x14x14x128xi8>, tensor<3x3x128x1xi8>, tensor<128xi32>) -> tensor<1x14x14x128xi32>
    %104 = "tosa.rescale"(%103) {double_round = true, input_zp = 0 : i32, multiplier = array<i32: 1746266752>, output_zp = -128 : i32, per_channel = false, scale32 = true, shift = array<i32: 36>} : (tensor<1x14x14x128xi32>) -> tensor<1x14x14x128xi8>
    %105 = "tosa.conv2d"(%104, %26, %25) {dilation = array<i64: 1, 1>, pad = array<i64: 0, 0, 0, 0>, quantization_info = #tosa.conv_quant<input_zp = -128, weight_zp = 0>, stride = array<i64: 1, 1>} : (tensor<1x14x14x128xi8>, tensor<128x1x1x128xi8>, tensor<128xi32>) -> tensor<1x14x14x128xi32>
    %106 = "tosa.rescale"(%105) {double_round = true, input_zp = 0 : i32, multiplier = array<i32: 1908506496>, output_zp = -128 : i32, per_channel = false, scale32 = true, shift = array<i32: 38>} : (tensor<1x14x14x128xi32>) -> tensor<1x14x14x128xi8>
    %107 = "tosa.depthwise_conv2d"(%106, %1, %24) {dilation = array<i64: 1, 1>, pad = array<i64: 0, 1, 0, 1>, quantization_info = #tosa.conv_quant<input_zp = -128, weight_zp = -32>, stride = array<i64: 2, 2>} : (tensor<1x14x14x128xi8>, tensor<3x3x128x1xi8>, tensor<128xi32>) -> tensor<1x7x7x128xi32>
    %108 = "tosa.rescale"(%107) {double_round = true, input_zp = 0 : i32, multiplier = array<i32: 1505078912>, output_zp = -128 : i32, per_channel = false, scale32 = true, shift = array<i32: 37>} : (tensor<1x7x7x128xi32>) -> tensor<1x7x7x128xi8>
    %109 = "tosa.conv2d"(%108, %23, %22) {dilation = array<i64: 1, 1>, pad = array<i64: 0, 0, 0, 0>, quantization_info = #tosa.conv_quant<input_zp = -128, weight_zp = -14>, stride = array<i64: 1, 1>} : (tensor<1x7x7x128xi8>, tensor<256x1x1x128xi8>, tensor<256xi32>) -> tensor<1x7x7x256xi32>
    %110 = "tosa.rescale"(%109) {double_round = true, input_zp = 0 : i32, multiplier = array<i32: 1121014912>, output_zp = -128 : i32, per_channel = false, scale32 = true, shift = array<i32: 36>} : (tensor<1x7x7x256xi32>) -> tensor<1x7x7x256xi8>
    %111 = "tosa.depthwise_conv2d"(%110, %0, %21) {dilation = array<i64: 1, 1>, pad = array<i64: 1, 1, 1, 1>, quantization_info = #tosa.conv_quant<input_zp = -128, weight_zp = 48>, stride = array<i64: 1, 1>} : (tensor<1x7x7x256xi8>, tensor<3x3x256x1xi8>, tensor<256xi32>) -> tensor<1x7x7x256xi32>
    %112 = "tosa.rescale"(%111) {double_round = true, input_zp = 0 : i32, multiplier = array<i32: 1788470912>, output_zp = -128 : i32, per_channel = false, scale32 = true, shift = array<i32: 36>} : (tensor<1x7x7x256xi32>) -> tensor<1x7x7x256xi8>
    %113 = "tosa.conv2d"(%112, %20, %19) {dilation = array<i64: 1, 1>, pad = array<i64: 0, 0, 0, 0>, quantization_info = #tosa.conv_quant<input_zp = -128, weight_zp = -1>, stride = array<i64: 1, 1>} : (tensor<1x7x7x256xi8>, tensor<256x1x1x256xi8>, tensor<256xi32>) -> tensor<1x7x7x256xi32>
    %114 = "tosa.rescale"(%113) {double_round = true, input_zp = 0 : i32, multiplier = array<i32: 1599252480>, output_zp = -128 : i32, per_channel = false, scale32 = true, shift = array<i32: 35>} : (tensor<1x7x7x256xi32>) -> tensor<1x7x7x256xi8>
    %115 = "tosa.avg_pool2d"(%114) {kernel = array<i64: 7, 7>, pad = array<i64: 0, 0, 0, 0>, quantization_info = #tosa.unary_quant<input_zp = 0, output_zp = 0>, stride = array<i64: 2, 2>} : (tensor<1x7x7x256xi8>) -> tensor<1x1x1x256xi8>
    %116 = "tosa.conv2d"(%115, %18, %17) {dilation = array<i64: 1, 1>, pad = array<i64: 0, 0, 0, 0>, quantization_info = #tosa.conv_quant<input_zp = -128, weight_zp = -26>, stride = array<i64: 1, 1>} : (tensor<1x1x1x256xi8>, tensor<1001x1x1x256xi8>, tensor<1001xi32>) -> tensor<1x1x1x1001xi32>
    %117 = "tosa.rescale"(%116) {double_round = true, input_zp = 0 : i32, multiplier = array<i32: 1123447556>, output_zp = -35 : i32, per_channel = false, scale32 = true, shift = array<i32: 40>} : (tensor<1x1x1x1001xi32>) -> tensor<1x1x1x1001xi8>
    %118 = "tosa.reshape"(%117) {new_shape = array<i64: 1, 1001>} : (tensor<1x1x1x1001xi8>) -> tensor<1x1001xi8>
    %119 = "tosa.cast"(%118) : (tensor<1x1001xi8>) -> tensor<1x1001xf32>
    %120 = "tosa.sub"(%119, %13) : (tensor<1x1001xf32>, tensor<1x1xf32>) -> tensor<1x1001xf32>
    %121 = "tosa.mul"(%120, %14) {shift = 0 : i32} : (tensor<1x1001xf32>, tensor<1x1xf32>) -> tensor<1x1001xf32>
    %122 = "tosa.exp"(%121) : (tensor<1x1001xf32>) -> tensor<1x1001xf32>
    %123 = "tosa.reduce_sum"(%122) {axis = 1 : i64} : (tensor<1x1001xf32>) -> tensor<1x1xf32>
    %124 = "tosa.reciprocal"(%123) : (tensor<1x1xf32>) -> tensor<1x1xf32>
    %125 = "tosa.mul"(%122, %124) {shift = 0 : i32} : (tensor<1x1001xf32>, tensor<1x1xf32>) -> tensor<1x1001xf32>
    %126 = "tosa.mul"(%125, %15) {shift = 0 : i32} : (tensor<1x1001xf32>, tensor<1x1xf32>) -> tensor<1x1001xf32>
    %127 = "tosa.add"(%126, %16) : (tensor<1x1001xf32>, tensor<1x1xf32>) -> tensor<1x1001xf32>
    %128 = "tosa.cast"(%127) : (tensor<1x1001xf32>) -> tensor<1x1001xi8>
    %129 = "tosa.rescale"(%128) {double_round = false, input_zp = -128 : i32, multiplier = array<i32: 1073741824>, output_zp = 0 : i32, per_channel = false, scale32 = true, shift = array<i32: 30>} : (tensor<1x1001xi8>) -> tensor<1x1001xui8>
    return %129 : tensor<1x1001xui8>
  }
}

