module {
  func.func @main(%arg0: tensor<1x224x224x3xf32> {iree.identifier = "input"}) -> (tensor<1x1001xf32> {iree.identifier = "MobilenetV1/Predictions/Reshape_1"}) {
    %0 = "tosa.const"() {value = dense<"…"> : tensor<3x3x256x1xf32>} : () -> tensor<3x3x256x1xf32>
    %1 = "tosa.const"() {value = dense<"…"> : tensor<3x3x128x1xf32>} : () -> tensor<3x3x128x1xf32>
    %2 = "tosa.const"() {value = dense<"…"> : tensor<3x3x128x1xf32>} : () -> tensor<3x3x128x1xf32>
    %3 = "tosa.const"() {value = dense<"…"> : tensor<3x3x128x1xf32>} : () -> tensor<3x3x128x1xf32>
    %4 = "tosa.const"() {value = dense<"…"> : tensor<3x3x128x1xf32>} : () -> tensor<3x3x128x1xf32>
    %5 = "tosa.const"() {value = dense<"…"> : tensor<3x3x128x1xf32>} : () -> tensor<3x3x128x1xf32>
    %6 = "tosa.const"() {value = dense<"…"> : tensor<3x3x128x1xf32>} : () -> tensor<3x3x128x1xf32>
    %7 = "tosa.const"() {value = dense<"…"> : tensor<3x3x64x1xf32>} : () -> tensor<3x3x64x1xf32>
    %8 = "tosa.const"() {value = dense<"…"> : tensor<3x3x64x1xf32>} : () -> tensor<3x3x64x1xf32>
    %9 = "tosa.const"() {value = dense<"…"> : tensor<3x3x32x1xf32>} : () -> tensor<3x3x32x1xf32>
    %10 = "tosa.const"() {value = dense<"…"> : tensor<3x3x32x1xf32>} : () -> tensor<3x3x32x1xf32>
    %11 = "tosa.const"() {value = dense<"…"> : tensor<3x3x16x1xf32>} : () -> tensor<3x3x16x1xf32>
    %12 = "tosa.const"() {value = dense<[[[[… > : tensor<3x3x8x1xf32>} : () -> tensor<3x3x8x1xf32>
    %13 = "tosa.const"() {value = dense<"…"> : tensor<8x3x3x3xf32>} : () -> tensor<8x3x3x3xf32>
    %14 = "tosa.const"() {value = dense<[3.72175288, -0.371189564, -1.09753227, 2.88526678, -3.06258631, 1.89197361, 1.11953127, 2.62284136]> : tensor<8xf32>} : () -> tensor<8xf32>
    %15 = "tosa.const"() {value = dense<[2.43172598, -1.04234147, -0.274735242, 1.43355227, -2.74516642E-4, -1.78799748, 6.03261566, 6.23062325]> : tensor<8xf32>} : () -> tensor<8xf32>
    %16 = "tosa.const"() {value = dense<"…"> : tensor<16x1x1x8xf32>} : () -> tensor<16x1x1x8xf32>
    %17 = "tosa.const"() {value = dense<[… > : tensor<16xf32>} : () -> tensor<16xf32>
    %18 = "tosa.const"() {value = dense<[… > : tensor<16xf32>} : () -> tensor<16xf32>
    %19 = "tosa.const"() {value = dense<"…"> : tensor<32x1x1x16xf32>} : () -> tensor<32x1x1x16xf32>
    %20 = "tosa.const"() {value = dense<[… > : tensor<32xf32>} : () -> tensor<32xf32>
    %21 = "tosa.const"() {value = dense<[… > : tensor<32xf32>} : () -> tensor<32xf32>
    %22 = "tosa.const"() {value = dense<"…"> : tensor<32x1x1x32xf32>} : () -> tensor<32x1x1x32xf32>
    %23 = "tosa.const"() {value = dense<[… > : tensor<32xf32>} : () -> tensor<32xf32>
    %24 = "tosa.const"() {value = dense<[… > : tensor<32xf32>} : () -> tensor<32xf32>
    %25 = "tosa.const"() {value = dense<"…"> : tensor<64x1x1x32xf32>} : () -> tensor<64x1x1x32xf32>
    %26 = "tosa.const"() {value = dense<[… > : tensor<64xf32>} : () -> tensor<64xf32>
    %27 = "tosa.const"() {value = dense<[… > : tensor<64xf32>} : () -> tensor<64xf32>
    %28 = "tosa.const"() {value = dense<"…"> : tensor<64x1x1x64xf32>} : () -> tensor<64x1x1x64xf32>
    %29 = "tosa.const"() {value = dense<[… > : tensor<64xf32>} : () -> tensor<64xf32>
    %30 = "tosa.const"() {value = dense<[… > : tensor<64xf32>} : () -> tensor<64xf32>
    %31 = "tosa.const"() {value = dense<"…"> : tensor<128x1x1x64xf32>} : () -> tensor<128x1x1x64xf32>
    %32 = "tosa.const"() {value = dense<"…"> : tensor<128xf32>} : () -> tensor<128xf32>
    %33 = "tosa.const"() {value = dense<"…"> : tensor<128xf32>} : () -> tensor<128xf32>
    %34 = "tosa.const"() {value = dense<"…"> : tensor<128x1x1x128xf32>} : () -> tensor<128x1x1x128xf32>
    %35 = "tosa.const"() {value = dense<"…"> : tensor<128xf32>} : () -> tensor<128xf32>
    %36 = "tosa.const"() {value = dense<"…"> : tensor<128xf32>} : () -> tensor<128xf32>
    %37 = "tosa.const"() {value = dense<"…"> : tensor<128x1x1x128xf32>} : () -> tensor<128x1x1x128xf32>
    %38 = "tosa.const"() {value = dense<"…"> : tensor<128xf32>} : () -> tensor<128xf32>
    %39 = "tosa.const"() {value = dense<"…"> : tensor<128xf32>} : () -> tensor<128xf32>
    %40 = "tosa.const"() {value = dense<"…"> : tensor<128x1x1x128xf32>} : () -> tensor<128x1x1x128xf32>
    %41 = "tosa.const"() {value = dense<"…"> : tensor<128xf32>} : () -> tensor<128xf32>
    %42 = "tosa.const"() {value = dense<"…"> : tensor<128xf32>} : () -> tensor<128xf32>
    %43 = "tosa.const"() {value = dense<"…"> : tensor<128x1x1x128xf32>} : () -> tensor<128x1x1x128xf32>
    %44 = "tosa.const"() {value = dense<"…"> : tensor<128xf32>} : () -> tensor<128xf32>
    %45 = "tosa.const"() {value = dense<"…"> : tensor<128xf32>} : () -> tensor<128xf32>
    %46 = "tosa.const"() {value = dense<"…"> : tensor<128x1x1x128xf32>} : () -> tensor<128x1x1x128xf32>
    %47 = "tosa.const"() {value = dense<"…"> : tensor<128xf32>} : () -> tensor<128xf32>
    %48 = "tosa.const"() {value = dense<"…"> : tensor<128xf32>} : () -> tensor<128xf32>
    %49 = "tosa.const"() {value = dense<"…"> : tensor<256x1x1x128xf32>} : () -> tensor<256x1x1x128xf32>
    %50 = "tosa.const"() {value = dense<"…"> : tensor<256xf32>} : () -> tensor<256xf32>
    %51 = "tosa.const"() {value = dense<"…"> : tensor<256xf32>} : () -> tensor<256xf32>
    %52 = "tosa.const"() {value = dense<"…"> : tensor<256x1x1x256xf32>} : () -> tensor<256x1x1x256xf32>
    %53 = "tosa.const"() {value = dense<"…"> : tensor<256xf32>} : () -> tensor<256xf32>
    %54 = "tosa.const"() {value = dense<"…"> : tensor<1001x1x1x256xf32>} : () -> tensor<1001x1x1x256xf32>
    %55 = "tosa.const"() {value = dense<"…"> : tensor<1001xf32>} : () -> tensor<1001xf32>
    %56 = "tosa.conv2d"(%arg0, %13, %14) {dilation = array<i64: 1, 1>, pad = array<i64: 0, 1, 0, 1>, stride = array<i64: 2, 2>} : (tensor<1x224x224x3xf32>, tensor<8x3x3x3xf32>, tensor<8xf32>) -> tensor<1x112x112x8xf32>
    %57 = "tosa.clamp"(%56) {max_fp = 6.000000e+00 : f32, max_int = 6 : i64, min_fp = 0.000000e+00 : f32, min_int = 0 : i64} : (tensor<1x112x112x8xf32>) -> tensor<1x112x112x8xf32>
    %58 = "tosa.depthwise_conv2d"(%57, %12, %15) {dilation = array<i64: 1, 1>, pad = array<i64: 1, 1, 1, 1>, stride = array<i64: 1, 1>} : (tensor<1x112x112x8xf32>, tensor<3x3x8x1xf32>, tensor<8xf32>) -> tensor<1x112x112x8xf32>
    %59 = "tosa.clamp"(%58) {max_fp = 6.000000e+00 : f32, max_int = 6 : i64, min_fp = 0.000000e+00 : f32, min_int = 0 : i64} : (tensor<1x112x112x8xf32>) -> tensor<1x112x112x8xf32>
    %60 = "tosa.conv2d"(%59, %16, %17) {dilation = array<i64: 1, 1>, pad = array<i64: 0, 0, 0, 0>, stride = array<i64: 1, 1>} : (tensor<1x112x112x8xf32>, tensor<16x1x1x8xf32>, tensor<16xf32>) -> tensor<1x112x112x16xf32>
    %61 = "tosa.clamp"(%60) {max_fp = 6.000000e+00 : f32, max_int = 6 : i64, min_fp = 0.000000e+00 : f32, min_int = 0 : i64} : (tensor<1x112x112x16xf32>) -> tensor<1x112x112x16xf32>
    %62 = "tosa.depthwise_conv2d"(%61, %11, %18) {dilation = array<i64: 1, 1>, pad = array<i64: 0, 1, 0, 1>, stride = array<i64: 2, 2>} : (tensor<1x112x112x16xf32>, tensor<3x3x16x1xf32>, tensor<16xf32>) -> tensor<1x56x56x16xf32>
    %63 = "tosa.clamp"(%62) {max_fp = 6.000000e+00 : f32, max_int = 6 : i64, min_fp = 0.000000e+00 : f32, min_int = 0 : i64} : (tensor<1x56x56x16xf32>) -> tensor<1x56x56x16xf32>
    %64 = "tosa.conv2d"(%63, %19, %20) {dilation = array<i64: 1, 1>, pad = array<i64: 0, 0, 0, 0>, stride = array<i64: 1, 1>} : (tensor<1x56x56x16xf32>, tensor<32x1x1x16xf32>, tensor<32xf32>) -> tensor<1x56x56x32xf32>
    %65 = "tosa.clamp"(%64) {max_fp = 6.000000e+00 : f32, max_int = 6 : i64, min_fp = 0.000000e+00 : f32, min_int = 0 : i64} : (tensor<1x56x56x32xf32>) -> tensor<1x56x56x32xf32>
    %66 = "tosa.depthwise_conv2d"(%65, %10, %21) {dilation = array<i64: 1, 1>, pad = array<i64: 1, 1, 1, 1>, stride = array<i64: 1, 1>} : (tensor<1x56x56x32xf32>, tensor<3x3x32x1xf32>, tensor<32xf32>) -> tensor<1x56x56x32xf32>
    %67 = "tosa.clamp"(%66) {max_fp = 6.000000e+00 : f32, max_int = 6 : i64, min_fp = 0.000000e+00 : f32, min_int = 0 : i64} : (tensor<1x56x56x32xf32>) -> tensor<1x56x56x32xf32>
    %68 = "tosa.conv2d"(%67, %22, %23) {dilation = array<i64: 1, 1>, pad = array<i64: 0, 0, 0, 0>, stride = array<i64: 1, 1>} : (tensor<1x56x56x32xf32>, tensor<32x1x1x32xf32>, tensor<32xf32>) -> tensor<1x56x56x32xf32>
    %69 = "tosa.clamp"(%68) {max_fp = 6.000000e+00 : f32, max_int = 6 : i64, min_fp = 0.000000e+00 : f32, min_int = 0 : i64} : (tensor<1x56x56x32xf32>) -> tensor<1x56x56x32xf32>
    %70 = "tosa.depthwise_conv2d"(%69, %9, %24) {dilation = array<i64: 1, 1>, pad = array<i64: 0, 1, 0, 1>, stride = array<i64: 2, 2>} : (tensor<1x56x56x32xf32>, tensor<3x3x32x1xf32>, tensor<32xf32>) -> tensor<1x28x28x32xf32>
    %71 = "tosa.clamp"(%70) {max_fp = 6.000000e+00 : f32, max_int = 6 : i64, min_fp = 0.000000e+00 : f32, min_int = 0 : i64} : (tensor<1x28x28x32xf32>) -> tensor<1x28x28x32xf32>
    %72 = "tosa.conv2d"(%71, %25, %26) {dilation = array<i64: 1, 1>, pad = array<i64: 0, 0, 0, 0>, stride = array<i64: 1, 1>} : (tensor<1x28x28x32xf32>, tensor<64x1x1x32xf32>, tensor<64xf32>) -> tensor<1x28x28x64xf32>
    %73 = "tosa.clamp"(%72) {max_fp = 6.000000e+00 : f32, max_int = 6 : i64, min_fp = 0.000000e+00 : f32, min_int = 0 : i64} : (tensor<1x28x28x64xf32>) -> tensor<1x28x28x64xf32>
    %74 = "tosa.depthwise_conv2d"(%73, %8, %27) {dilation = array<i64: 1, 1>, pad = array<i64: 1, 1, 1, 1>, stride = array<i64: 1, 1>} : (tensor<1x28x28x64xf32>, tensor<3x3x64x1xf32>, tensor<64xf32>) -> tensor<1x28x28x64xf32>
    %75 = "tosa.clamp"(%74) {max_fp = 6.000000e+00 : f32, max_int = 6 : i64, min_fp = 0.000000e+00 : f32, min_int = 0 : i64} : (tensor<1x28x28x64xf32>) -> tensor<1x28x28x64xf32>
    %76 = "tosa.conv2d"(%75, %28, %29) {dilation = array<i64: 1, 1>, pad = array<i64: 0, 0, 0, 0>, stride = array<i64: 1, 1>} : (tensor<1x28x28x64xf32>, tensor<64x1x1x64xf32>, tensor<64xf32>) -> tensor<1x28x28x64xf32>
    %77 = "tosa.clamp"(%76) {max_fp = 6.000000e+00 : f32, max_int = 6 : i64, min_fp = 0.000000e+00 : f32, min_int = 0 : i64} : (tensor<1x28x28x64xf32>) -> tensor<1x28x28x64xf32>
    %78 = "tosa.depthwise_conv2d"(%77, %7, %30) {dilation = array<i64: 1, 1>, pad = array<i64: 0, 1, 0, 1>, stride = array<i64: 2, 2>} : (tensor<1x28x28x64xf32>, tensor<3x3x64x1xf32>, tensor<64xf32>) -> tensor<1x14x14x64xf32>
    %79 = "tosa.clamp"(%78) {max_fp = 6.000000e+00 : f32, max_int = 6 : i64, min_fp = 0.000000e+00 : f32, min_int = 0 : i64} : (tensor<1x14x14x64xf32>) -> tensor<1x14x14x64xf32>
    %80 = "tosa.conv2d"(%79, %31, %32) {dilation = array<i64: 1, 1>, pad = array<i64: 0, 0, 0, 0>, stride = array<i64: 1, 1>} : (tensor<1x14x14x64xf32>, tensor<128x1x1x64xf32>, tensor<128xf32>) -> tensor<1x14x14x128xf32>
    %81 = "tosa.clamp"(%80) {max_fp = 6.000000e+00 : f32, max_int = 6 : i64, min_fp = 0.000000e+00 : f32, min_int = 0 : i64} : (tensor<1x14x14x128xf32>) -> tensor<1x14x14x128xf32>
    %82 = "tosa.depthwise_conv2d"(%81, %6, %33) {dilation = array<i64: 1, 1>, pad = array<i64: 1, 1, 1, 1>, stride = array<i64: 1, 1>} : (tensor<1x14x14x128xf32>, tensor<3x3x128x1xf32>, tensor<128xf32>) -> tensor<1x14x14x128xf32>
    %83 = "tosa.clamp"(%82) {max_fp = 6.000000e+00 : f32, max_int = 6 : i64, min_fp = 0.000000e+00 : f32, min_int = 0 : i64} : (tensor<1x14x14x128xf32>) -> tensor<1x14x14x128xf32>
    %84 = "tosa.conv2d"(%83, %34, %35) {dilation = array<i64: 1, 1>, pad = array<i64: 0, 0, 0, 0>, stride = array<i64: 1, 1>} : (tensor<1x14x14x128xf32>, tensor<128x1x1x128xf32>, tensor<128xf32>) -> tensor<1x14x14x128xf32>
    %85 = "tosa.clamp"(%84) {max_fp = 6.000000e+00 : f32, max_int = 6 : i64, min_fp = 0.000000e+00 : f32, min_int = 0 : i64} : (tensor<1x14x14x128xf32>) -> tensor<1x14x14x128xf32>
    %86 = "tosa.depthwise_conv2d"(%85, %5, %36) {dilation = array<i64: 1, 1>, pad = array<i64: 1, 1, 1, 1>, stride = array<i64: 1, 1>} : (tensor<1x14x14x128xf32>, tensor<3x3x128x1xf32>, tensor<128xf32>) -> tensor<1x14x14x128xf32>
    %87 = "tosa.clamp"(%86) {max_fp = 6.000000e+00 : f32, max_int = 6 : i64, min_fp = 0.000000e+00 : f32, min_int = 0 : i64} : (tensor<1x14x14x128xf32>) -> tensor<1x14x14x128xf32>
    %88 = "tosa.conv2d"(%87, %37, %38) {dilation = array<i64: 1, 1>, pad = array<i64: 0, 0, 0, 0>, stride = array<i64: 1, 1>} : (tensor<1x14x14x128xf32>, tensor<128x1x1x128xf32>, tensor<128xf32>) -> tensor<1x14x14x128xf32>
    %89 = "tosa.clamp"(%88) {max_fp = 6.000000e+00 : f32, max_int = 6 : i64, min_fp = 0.000000e+00 : f32, min_int = 0 : i64} : (tensor<1x14x14x128xf32>) -> tensor<1x14x14x128xf32>
    %90 = "tosa.depthwise_conv2d"(%89, %4, %39) {dilation = array<i64: 1, 1>, pad = array<i64: 1, 1, 1, 1>, stride = array<i64: 1, 1>} : (tensor<1x14x14x128xf32>, tensor<3x3x128x1xf32>, tensor<128xf32>) -> tensor<1x14x14x128xf32>
    %91 = "tosa.clamp"(%90) {max_fp = 6.000000e+00 : f32, max_int = 6 : i64, min_fp = 0.000000e+00 : f32, min_int = 0 : i64} : (tensor<1x14x14x128xf32>) -> tensor<1x14x14x128xf32>
    %92 = "tosa.conv2d"(%91, %40, %41) {dilation = array<i64: 1, 1>, pad = array<i64: 0, 0, 0, 0>, stride = array<i64: 1, 1>} : (tensor<1x14x14x128xf32>, tensor<128x1x1x128xf32>, tensor<128xf32>) -> tensor<1x14x14x128xf32>
    %93 = "tosa.clamp"(%92) {max_fp = 6.000000e+00 : f32, max_int = 6 : i64, min_fp = 0.000000e+00 : f32, min_int = 0 : i64} : (tensor<1x14x14x128xf32>) -> tensor<1x14x14x128xf32>
    %94 = "tosa.depthwise_conv2d"(%93, %3, %42) {dilation = array<i64: 1, 1>, pad = array<i64: 1, 1, 1, 1>, stride = array<i64: 1, 1>} : (tensor<1x14x14x128xf32>, tensor<3x3x128x1xf32>, tensor<128xf32>) -> tensor<1x14x14x128xf32>
    %95 = "tosa.clamp"(%94) {max_fp = 6.000000e+00 : f32, max_int = 6 : i64, min_fp = 0.000000e+00 : f32, min_int = 0 : i64} : (tensor<1x14x14x128xf32>) -> tensor<1x14x14x128xf32>
    %96 = "tosa.conv2d"(%95, %43, %44) {dilation = array<i64: 1, 1>, pad = array<i64: 0, 0, 0, 0>, stride = array<i64: 1, 1>} : (tensor<1x14x14x128xf32>, tensor<128x1x1x128xf32>, tensor<128xf32>) -> tensor<1x14x14x128xf32>
    %97 = "tosa.clamp"(%96) {max_fp = 6.000000e+00 : f32, max_int = 6 : i64, min_fp = 0.000000e+00 : f32, min_int = 0 : i64} : (tensor<1x14x14x128xf32>) -> tensor<1x14x14x128xf32>
    %98 = "tosa.depthwise_conv2d"(%97, %2, %45) {dilation = array<i64: 1, 1>, pad = array<i64: 1, 1, 1, 1>, stride = array<i64: 1, 1>} : (tensor<1x14x14x128xf32>, tensor<3x3x128x1xf32>, tensor<128xf32>) -> tensor<1x14x14x128xf32>
    %99 = "tosa.clamp"(%98) {max_fp = 6.000000e+00 : f32, max_int = 6 : i64, min_fp = 0.000000e+00 : f32, min_int = 0 : i64} : (tensor<1x14x14x128xf32>) -> tensor<1x14x14x128xf32>
    %100 = "tosa.conv2d"(%99, %46, %47) {dilation = array<i64: 1, 1>, pad = array<i64: 0, 0, 0, 0>, stride = array<i64: 1, 1>} : (tensor<1x14x14x128xf32>, tensor<128x1x1x128xf32>, tensor<128xf32>) -> tensor<1x14x14x128xf32>
    %101 = "tosa.clamp"(%100) {max_fp = 6.000000e+00 : f32, max_int = 6 : i64, min_fp = 0.000000e+00 : f32, min_int = 0 : i64} : (tensor<1x14x14x128xf32>) -> tensor<1x14x14x128xf32>
    %102 = "tosa.depthwise_conv2d"(%101, %1, %48) {dilation = array<i64: 1, 1>, pad = array<i64: 0, 1, 0, 1>, stride = array<i64: 2, 2>} : (tensor<1x14x14x128xf32>, tensor<3x3x128x1xf32>, tensor<128xf32>) -> tensor<1x7x7x128xf32>
    %103 = "tosa.clamp"(%102) {max_fp = 6.000000e+00 : f32, max_int = 6 : i64, min_fp = 0.000000e+00 : f32, min_int = 0 : i64} : (tensor<1x7x7x128xf32>) -> tensor<1x7x7x128xf32>
    %104 = "tosa.conv2d"(%103, %49, %50) {dilation = array<i64: 1, 1>, pad = array<i64: 0, 0, 0, 0>, stride = array<i64: 1, 1>} : (tensor<1x7x7x128xf32>, tensor<256x1x1x128xf32>, tensor<256xf32>) -> tensor<1x7x7x256xf32>
    %105 = "tosa.clamp"(%104) {max_fp = 6.000000e+00 : f32, max_int = 6 : i64, min_fp = 0.000000e+00 : f32, min_int = 0 : i64} : (tensor<1x7x7x256xf32>) -> tensor<1x7x7x256xf32>
    %106 = "tosa.depthwise_conv2d"(%105, %0, %51) {dilation = array<i64: 1, 1>, pad = array<i64: 1, 1, 1, 1>, stride = array<i64: 1, 1>} : (tensor<1x7x7x256xf32>, tensor<3x3x256x1xf32>, tensor<256xf32>) -> tensor<1x7x7x256xf32>
    %107 = "tosa.clamp"(%106) {max_fp = 6.000000e+00 : f32, max_int = 6 : i64, min_fp = 0.000000e+00 : f32, min_int = 0 : i64} : (tensor<1x7x7x256xf32>) -> tensor<1x7x7x256xf32>
    %108 = "tosa.conv2d"(%107, %52, %53) {dilation = array<i64: 1, 1>, pad = array<i64: 0, 0, 0, 0>, stride = array<i64: 1, 1>} : (tensor<1x7x7x256xf32>, tensor<256x1x1x256xf32>, tensor<256xf32>) -> tensor<1x7x7x256xf32>
    %109 = "tosa.clamp"(%108) {max_fp = 6.000000e+00 : f32, max_int = 6 : i64, min_fp = 0.000000e+00 : f32, min_int = 0 : i64} : (tensor<1x7x7x256xf32>) -> tensor<1x7x7x256xf32>
    %110 = "tosa.avg_pool2d"(%109) {kernel = array<i64: 7, 7>, pad = array<i64: 0, 0, 0, 0>, stride = array<i64: 2, 2>} : (tensor<1x7x7x256xf32>) -> tensor<1x1x1x256xf32>
    %111 = "tosa.conv2d"(%110, %54, %55) {dilation = array<i64: 1, 1>, pad = array<i64: 0, 0, 0, 0>, stride = array<i64: 1, 1>} : (tensor<1x1x1x256xf32>, tensor<1001x1x1x256xf32>, tensor<1001xf32>) -> tensor<1x1x1x1001xf32>
    %112 = "tosa.reshape"(%111) {new_shape = array<i64: 1, 1001>} : (tensor<1x1x1x1001xf32>) -> tensor<1x1001xf32>
    %113 = "tosa.exp"(%112) : (tensor<1x1001xf32>) -> tensor<1x1001xf32>
    %114 = "tosa.reduce_sum"(%113) {axis = 1 : i64} : (tensor<1x1001xf32>) -> tensor<1x1xf32>
    %115 = "tosa.reciprocal"(%114) : (tensor<1x1xf32>) -> tensor<1x1xf32>
    %116 = "tosa.mul"(%113, %115) {shift = 0 : i32} : (tensor<1x1001xf32>, tensor<1x1xf32>) -> tensor<1x1001xf32>
    return %116 : tensor<1x1001xf32>
  }
}

